…
ng().to(device)\n\nAnd create the dataloader\n\ndl = DataLoader(\n    TensorDataset(\n        ds[0].float(),  # x\n        ds[1].bool(),  # mask\n        ds[2].long(),  # dynamic world\n        ds[3].float(),  # latlons\n        month, \n    ),\n    batch_size=64,\n    shuffle=False,\n)\n\nNext, Construct the model, load state dict and put it into same device than all the other data.\n\nmodel = Presto.construct()\nmodel.load_state_dict(torch.load('../models/default_model.pt', map_location=device))\nmodel.to(device)\n\nPresto(\n  (encoder): Encoder(\n    (eo_patch_embed): ModuleDict(\n      (S1): Linear(in_features=2, out_features=128, bias=True)\n      (S2_RGB): Linear(in_features=3, out_features=128, bias=True)\n      (S2_Red_Edge): Linear(in_features=3, out_features=128, bias=True)\n      (S2_NIR_10m): Linear(in_features=1, out_features=128, bias=True)\n      (S2_NIR_20m): Linear(in_features=1, out_features=128, bias=True)\n      (S2_SWIR): Linear(in_features=2, out_features=128, bias=True)\n      (ERA5): Linear(in_features=2, out_features=128, bias=True)\n      (SRTM): Linear(in_features=2, out_features=128, bias=True)\n      (NDVI): Linear(in_features=1, out_features=128, bias=True)\n    )\n    (dw_embed): Embedding(10, 128)\n    (latlon_embed): Linear(in_features=3, out_features=128, bias=True)\n    (blocks): ModuleList(\n      (0-1): 2 x Block(\n        (norm1): LayerNorm((128,), eps=1e-05, elementwise_affine=True)\n        (attn): Attention(\n          (qkv): Linear(in_features=128, out_features=384, bias=True)\n          (q_norm): Identity()\n          (k_norm): Identity()\n          (attn_drop): Dropout(p=0.0, inplace=False)\n          (proj): Linear(in_features=128, out_features=128, bias=True)\n          (proj_drop): Dropout(p=0.0, inplace=False)\n        )\n        (ls1): Identity()\n        (norm2): LayerNorm((128,), eps=1e-05, elementwise_affine=True)\n        (mlp): Mlp(\n          (fc1): Linear(in_features=128, out_features=512, bias=True)\n          (act): GELU(approximate='none')\n          (drop1): Dropout(p=0.0, inplace=False)\n          (fc2): Linear(in_features=512, out_features=128, bias=True)\n          (drop2): Dropout(p=0.0, inplace=False)\n        )\n        (ls2): Identity()\n      )\n    )\n    (norm): LayerNorm((128,), eps=1e-05, elementwise_affine=True)\n    (month_embed): Embedding(12, 32)\n    (channel_embed): Embedding(10, 32)\n  )\n  (decoder): Decoder(\n    (decoder_embed): Linear(in_features=128, out_features=128, bias=True)\n    (decoder_blocks): ModuleList(\n      (0-1): 2 x Block(\n        (norm1): LayerNorm((128,), eps=1e-05, elementwise_affine=True)\n        (attn): Attention(\n          (qkv): Linear(in_features=128, out_features=384, bias=True)\n          (q_norm): Identity()\n          (k_norm): Identity()\n          (attn_drop): Dropout(p=0.0, inplace=False)\n          (proj): Linear(in_features=128, out_features=128, bias=True)\n          (proj_drop): Dropout(p=0.0, inplace=False)\n        )\n        (ls1): Identity()\n        (norm2): LayerNorm((128,), eps=1e-05, elementwise_affine=True)\n        (mlp): Mlp(\n          (fc1): Linear(in_features=128, out_features=512, bias=True)\n          (act): GELU(approximate='none')\n          (drop1): Dropout(p=0.0, inplace=False)\n          (fc2): Linear(in_features=512, out_features=128, bias=True)\n          (drop2): Dropout(p=0.0, inplace=False)\n        )\n        (ls2): Identity()\n      )\n    )\n    (decoder_norm): LayerNorm((128,), eps=1e-05, elementwise_affine=True)\n    (eo_decoder_pred): ModuleDict(\n      (S1): Linear(in_features=128, out_features=2, bias=True)\n      (S2_RGB): Linear(in_features=128, out_features=3, bias=True)\n      (S2_Red_Edge): Linear(in_features=128, out_features=3, bias=True)\n      (S2_NIR_10m): Linear(in_features=128, out_features=1, bias=True)\n      (S2_NIR_20m): Linear(in_features=128, out_features=1, bias=True)\n      (S2_SWIR): Linear(in_features=128, out_features=2, bias=True)\n      (ERA5): Linear(in_features=128, out_features=2, bias=True)\n      (SRTM): Linear(in_features=128, out_features=2, bias=True)\n      (NDVI): Linear(in_features=128, out_features=1, bias=True)\n    )\n    (dw_decoder_pred): Linear(in_features=128, out_features=9, bias=True)\n    (channel_embeddings): Embedding(10, 32)\n    (month_embed): Embedding(12, 48)\n  )\n)\n\n\nNow Presto can be used to generate embeddings for the data.\n\nembeddings = []\nfor (x, mask, dw, latlons, month) in tqdm(dl):\n    with torch.no_grad():\n        model.eval()\n        embeddings.append(model.encoder(x=x, mask=mask, dynamic_world=dw, latlons=latlons, month=month).cpu())\n\n100%|███████████████████████████████████████████████████████████████████| 22/22 [00:01&l
…
